HandWrittenDigitRecognizer/app/src/main/assets/mnist.tflite (tflite, 37600 bytes, 6 tensors)

dense_2/bias f4 [10]
0.15557583 0.41174144 -0.43617383 -0.19756888 0.049709246 -0.004049374 0.31235087 -0.21413688
-0.14881885 0.29215366
00000000: 454f 1f3e c6cf d23e 2d52 dfbe 7f4f 4abe
00000010: ec9b 4b3d 9cb0 84bb 74ec 9f3e b346 5bbe
00000020: f863 18be 2a95 953e

dense_1/bias f4 [50]
0.78489304 0.028645085 -0.48865077 0.16148774 0.040247463 0.11040627 0.4488031 0.0943317
0.17431127 -0.030077033 -0.033846434 -0.21207078 -0.14334442 0.22477832 0.2837456 -1.6398908e-05
0.41380444 -0.15504217 -0.37328994 -0.060954876 0.37367585 0.48839694 -0.018411705 0.2442886
0.4198674 0.15434536 0.06913463 -0.23505959 -0.091016896 0.23070817 0.28388938 -0.15140702
-0.046969883 -0.33254525 -0.22611277 0.10553646 -0.15799154 0.07995521 0.10198413 0.044822127
0.36718404 0.0 0.13240899 0.0372206 -0.10722483 -0.41958132 0.040930785 0.09469389
0.081040435 0.35141405
00000000: c0ee 483f 19a9 ea3c 6f30 fabe 0b5d 253e
00000010: 86da 243d af1c e23d 85c9 e53e fa30 c13d
00000020: a77e 323e 1c64 f6bc 8fa2 0abd 1529 59be
00000030: e1c8 12be 4a2c 663e 1a47 913e 6390 89b7
00000040: 2dde d33e 60c3 1ebe dc1f bfbe d2ab 79bd
00000050: 7152 bf3e 2a0f fa3e 25d4 96bc ca26 7a3e
00000060: dcf8 d63e b60c 1e3e 7596 8d3d 76b3 70be
00000070: 1167 babd c33e 6c3e f359 913e 710a 1bbe
00000080: 7e63 40bd 5f43 aabe 1b8a 67be 8023 d83d
00000090: 89c8 21be 8fbf a33d 0edd d03d 6897 373d
000000a0: 8cff bb3e 0000 0000 3996 073e a174 183d
000000b0: b198 dbbd 5dd3 d6be 0aa7 273d dfee c13d
000000c0: 87f8 a53d 8bec b33e

dense/bias f4 [10]
0.6443623 0.20222694 0.6640381 -0.18821785 -0.87328583 -0.14208081 -0.09475007 -0.93367755
-0.289021 -0.5478563
00000000: edf4 243f 9414 4f3e 67fe 293f 2ebc 40be
00000010: a98f 5fbf a27d 11be 530c c2bd 7e05 6fbf
00000020: 8ffa 93be 4f40 0cbf

sequential/dense/MatMul f4 [10, 784]
-0.0026443303 0.043342687 -0.022155292 0.07248453 -0.08066636 0.051960997 -0.082037084 -0.022842072
-0.061011583 -0.0714944 -0.055395316 0.0654956 -0.052571826 -0.40632573 -0.4582329 -0.25745142
0.07371598 -0.06442049 -0.075384706 -0.024634168 0.018335663 -0.07877901 -0.053272776 -0.056557562
0.039768316 0.015839934 0.07037868 -0.08159051 0.078599505 0.043040074 0.03633561 0.080441214
0.047931854 0.17054302 0.26320243 0.20428492 0.060167797 0.21445881 0.38519105 -0.19170603
-0.30903757 -0.16308409 0.14453657 -0.079109915 -0.6883701 -0.35840762 1.1305673 0.30071592
0.5389338 0.6400653 0.2942125 0.08014602 0.014795698 -0.029590841 -0.04321159 0.037982374
-0.04983147 0.06336602 0.09603 -0.6370582 -0.37728167 0.31523505 -0.6812391 -0.33599305
-0.53592676 -0.586628 -0.27026826 0.23758826 -0.37726626 -0.7547786 0.63444334 0.5965957
-0.4904511 0.15106888 -0.24651802 0.08643508 -0.19337891 -0.12783016 0.09797332 -0.43802002
-0.45073736 -0.6404323 -0.0005902648 -0.08197165 -0.015208162 -0.06428058 0.106472686 -0.6591719
0.47859505 0.28011593 0.41756365 0.74274117 -0.57899296 -0.20988232 -0.03144332 0.18769468
-0.5498693 -0.43883315 0.22494406 -0.17580667 -0.11392436 -0.3961695 -0.11904884 0.27334225
-0.16608742 0.2712847 0.5329996 0.41454172 0.23945098 -0.6474812 0.23105843 -0.08465822
-0.045449056 0.0701661 -0.50149864 -0.06380097 0.85858464 0.17202614 0.35563374 -0.09597735
-0.6418687 -0.6841944 -0.23941532 -0.50735885 -0.17233218 -0.10284452 -0.20877595 -0.2802105
0.010970312 -0.043274894 -0.17274809 0.2426423 0.04164828 0.09760996 0.13773127 0.32971972
-0.054160886 -0.54953104 -0.93125623 0.55100006 0.03708055 -0.030193228 -0.21822672 -0.072116934
-0.066425644 -0.39630628 0.13245565 -0.35019663 -0.019863715 -0.47810712 0.11227985 -0.29748538
-0.14799944 -0.60835767 -0.50236267 -0.30496785 -0.40180203 -0.104263574 0.015781661 0.039026182
0.06208789 -0.076051675 -0.00037517655 0.50477684 -0.029103924 -0.14049998 -0.06916416 0.89691395
0.08141493 -0.089882016 -0.12074348 -0.17853725 0.07505537 0.41707683 -0.6139776 0.19116655
0.20793112 0.086231105 -0.4193662 -0.37831426 -0.17667076 -0.41442817 -0.3511961 -0.36455125
-0.3015421 -0.21880803 -0.5507651 -0.42513093 -0.24206518 -0.21941508 0.35594785 0.3241866
0.016158612 0.34530205 0.39017785 0.5835219 0.031168863 -0.7122493 -0.3439595 -0.46573168
-0.9071407 0.38766512 -0.14980169 0.15518016 -0.13580729 0.006186392 -0.08521066 0.012602003
-0.35568994 -0.02077075 -0.4034772 -0.26067817 -0.37441525 -0.082512096 -0.29759187 -0.15327203
-0.23035552 -0.27359265 -0.19839543 -0.05060519 0.4706075 0.32768527 0.16341127 0.48594546
-0.050055925 -0.82838136 0.06439791 -0.18688302 -0.33132938 0.11524679 0.38028628 -0.33996373
-0.45317602 0.021535143 -0.057316612 -0.08386803 -0.18123892 -0.24093857 -0.2924921 -0.17284828
-0.49235627 -0.24080883 -0.31416672 -0.3510099 -0.5187828 -0.57166713 -0.48964003 -0.58122724
0.0067541194 -0.07801322 -0.23662804 -0.7060044 -0.028480021 -0.83912575 -0.06873074 -0.469515
00000000: 804c 2dbb 1a88 313d 047f b5bc c572 943d
00000010: 6834 a5bd 0ed5 543d 0f03 a8bd 4c1f bbbc
00000020: 48e7 79bd a86b 92bd 33e6 62bd 8f22 863d
00000030: 8e55 57bd ed09 d0be 819d eabe acd0 83be
00000040: 67f8 963d e4ee 83bd 4c63 9abd 98cd c9bc
00000050: ac34 963c e456 a1bd 8e34 5abd e7a8 67bd
00000060: 1ae4 223d c0c2 813c b322 903d ed18 a7bd
00000070: c7f8 a03d ca4a 303d a6d4 143d 5dbe a43d
00000080: 3154 443d d4a2 2e3e 78c2 863e 1130 513e
00000090: 8272 763d 179b 5b3e c337 c53e 964e 44be
000000a0: 2c3a 9ebe 84ff 26be 6501 143e 6104 a2bd
000000b0: 0639 30bf 3481 b7be 6eb6 903f 70f7 993e
000000c0: 91f7 093f 52db 233f 05a3 963e 9923 a43d
000000d0: a869 723c 7e68 f2bc a3fe 30bd 6893 1b3d
000000e0: 151c 4cbd 0bc6 813d 60ab c43d 3f16 23bf
000000f0: 102b c1be 7d66 a13e b065 2ebf 4807 acbe
00000100: 7f32 09bf 412d 16bf 9a60 8abe 564a 733e
00000110: 0b29 c1be 2c39 41bf e16a 223f 7fba 183f
00000120: 681c fbbe cdb1 1a3e 386f 7cbe e004 b13d
00000130: 1f05 46be e9e5 02be 3ca6 c83d 2944 e0be
00000140: 0cc7 e6be 5ff3 23bf 00bc 1aba c1e0 a7bd
00000150: a82b 79bc 89a5 83bd 5a0e da3d 7dbf 28bf
00000160: 690a f53e 5b6b 8f3e e7ca d53e 4924 3e3f
00000170: e238 14bf 64eb 56be b6ca 00bd 0933 403e
00000180: 3cc4 0cbf bdae e0be bc57 663e aa06 34be
00000190: 2d51 e9bd bbd6 cabe e1cf f3bd 84f3 8b3e
000001a0: d212 2abe d4e5 8a3e a972 083f d03e d43e
000001b0: a332 753e 54c1 25bf 959a 6c3e 4a61 adbd
000001c0: ca28 3abd 3fb3 8f3d 3762 00bf 15aa 82bd
000001d0: 34cc 5b3f 9f27 303e a015 b63e c68f c4bd
000001e0: 8251 24bf 5d27 2fbf 4a29 75be 45e2 01bf
000001f0: d977 30be 26a0 d2bd 5dc9 55be c077 8fbe
00000200: d3bc 333c 0441 31bd e0e4 30be 3977 783e
00000210: 6397 2a3d bbe7 c73d 6d09 0d3e 06d1 a83e
00000220: ced7 5dbd 11ae 0cbf cf66 6ebf 570e 0d3f
00000230: c6e1 173d ca57 f7bc d376 5fbe 0bb2 93bd
00000240: 2b0a 88bd a8e8 cabe 74a2 073e f94c b3be
00000250: 3bb9 a2bc 75ca f4be faf2 e53d 0150 98be
00000260: 2a8d 17be 54bd 1bbf d79a 00bf bf24 9cbe
00000270: ffb8 cdbe 2488 d5bd 8b48 813c ebd9 1f3d
00000280: df4f 7e3d fbc0 9bbd 58b3 c4b9 0e39 013f
00000290: 5a6b eebc 3adf 0fbe f0a5 8dbd 279c 653f
000002a0: dfbc a63d 1014 b8bd 5c48 f7bd 78d2 36be
000002b0: a1b6 993d 188b d53e a32d 1dbf 2ac1 433e
000002c0: e5eb 543e ef99 b03d 2bb7 d6be 68b2 c1be
000002d0: 2ee9 34be ee2f d4be facf b3be 76a6 babe
000002e0: ba63 9abe 360f 60be f1fe 0cbf c3aa d9be
000002f0: efdf 77be 59ae 60be cc3e b63e c9fb a53e
00000300: 115f 843c 6ecb b03e 64c5 c73e b161 153f
00000310: d855 ff3c f855 36bf 761b b0be 6274 eebe
00000320: 5f3a 68bf 0b7c c63e 9d65 19be 8ce7 1e3e
00000330: 1111 0bbe 38b7 ca3b ed82 aebd a278 4e3c
00000340: fe1c b6be 6b27 aabc 9094 cebe 9c77 85be
00000350: 5bb3 bfbe 1afc a8bd f65d 98be 58f3 1cbe
00000360: 51e2 6bbe 5614 8cbe 2c28 4bbe 6347 4fbd
00000370: 77f3 f03e 5dc6 a73e 4955 273e d8cd f83e
00000380: 7107 4dbd cd10 54bf 0de3 833d 435e 3fbe
00000390: 01a4 a9be 8206 ec3d e2b4 c23e ba0f aebe
000003a0: b006 e8be 786a b03c d3c4 6abd 00c3 abbd
000003b0: b296 39be 9ab8 76be 86c1 95be 24ff 30be
000003c0: 1f16 fcbe 9796 76be 76da a0be 92b7 b3be
000003d0: f3ce 04bf c758 12bf 19b2 fabe 4fcb 14bf
000003e0: a951 dd3b 65c5 9fbd 9f4e 72be b4bc 34bf
000003f0: ef4e e9bc f2d0 56bf b4c2 8cbd 4564 f0be

sequential/dense_1/MatMul f4 [50, 10]
0.38321555 0.9389881 -0.34592772 1.1770933 -0.15535231 -0.46071613 -0.034375068 -0.6720515
0.42846957 0.17003514 -0.20642897 0.30774957 0.43329823 0.40227237 0.691642 0.3825812
1.3976372 0.32488355 -0.17106204 -0.1390039 0.42917815 0.04921677 1.3495843 -0.04586247
-0.43010998 -1.3719305 -0.098442756 0.7544805 0.42423296 0.80408436 1.3234862 -0.04606807
-0.850205 -0.7286709 0.30220103 -0.25141627 0.40625712 -0.92754596 0.2338862 1.2640074
-0.9015067 0.5648476 0.51059884 0.5912217 0.3848508 -0.87150836 -0.34720367 -0.021710426
0.52827495 0.75830835 -0.44238824 -0.39332154 0.1033641 -0.58151966 0.6407447 -1.2059164
-0.27766323 1.1820484 0.26695055 0.21886529 0.27102858 0.7362327 0.8266049 -1.1902678
0.014532054 0.050794125 -0.8766994 -0.19096288 -0.20745522 -0.98264855 -0.17492077 -0.16518892
0.45373264 0.15798019 0.20828144 0.37263533 -0.9507498 0.74723065 -1.266239 0.73928493
-0.7348076 0.9854902 0.2255297 -0.53623927 0.40492406 0.5016725 0.23400807 -0.42978284
-0.45578527 -0.09775657 -0.059624698 0.387637 -0.15411031 -0.37935606 -1.7671548 0.80491424
1.508597 0.20525399 -0.19922933 -0.15847647 0.06538475 0.4502352 -0.5470026 -0.29998788
0.19960043 0.5430566 -0.28803074 0.51644254 0.7962016 -1.605158 0.3781705 0.055251747
0.41854712 -1.2185397 0.15391333 0.48849833 -0.46589765 -0.080031164 0.41835836 -0.6505665
-0.769427 0.49778005 -0.15507074 -1.1745458 1.221782 0.15627193 0.6748159 0.12220247
-0.2345458 -0.13219343 0.7039415 0.4870864 0.9202086 -0.1367764 0.21594137 -0.49546447
-0.4462084 -0.1431878 -1.1342882 -0.2731048 0.9902259 -0.8760277 0.971487 0.042530872
-0.17319497 0.09441934 0.8938467 0.49430543 -0.7450789 -0.42203274 -0.21656187 -0.29552484
-0.11469506 -0.30383357 -0.16875249 -0.02544953 -0.27227584 -0.28385708 -0.06844791 0.12812862
-0.42702138 0.4754706 0.3176325 0.16311727 0.97762024 -2.0612907 0.5718097 -0.91793215
-0.565927 0.44473672 0.18388064 -0.7681807 0.08991508 -1.0054868 0.96616566 0.45805985
0.1630482 0.57168186 -0.10307458 0.14716461 -0.763139 0.55592984 0.49221644 -0.6834724
0.3522671 -0.24379759 0.68304724 0.41541845 0.5916014 1.2086446 -0.52867556 1.0522659
-0.3468609 0.24577568 -0.7593604 0.7973734 1.2047756 0.07419627 -1.388484 0.51233894
0.5819481 0.2309511 -0.18829428 -0.6804854 0.2828503 0.29470688 0.7497368 0.4906975
-0.740586 0.05449911 0.55792516 0.023812868 1.1040825 0.8490149 -0.6508513 -0.0309282
-0.09439486 -0.11581784 -0.17234564 -0.76818645 0.009030091 0.13678008 0.5565503 -0.18683605
0.88685167 -0.5119946 1.2038591 0.17467082 -0.18153322 0.5493302 0.5064199 -0.15861383
-0.29902998 0.74724317 0.45769304 -0.49997577 0.2220559 -0.10610778 -0.21468745 1.3221643
0.42931804 0.13435785 0.91788876 -0.49034488 0.12614399 0.25324994 0.67099065 0.111754425
-0.8286657 -0.089629166 0.65657216 0.3699281 0.5525192 -0.9104033 0.1516745 0.35103285
00000000: d434 c43e 8661 703f 701d b1be feaa 963f
00000010: ad14 1fbe fce2 ebbe dfcc 0cbd 910b 2cbf
00000020: 5d60 db3e b11d 2e3e 1e62 53be 5a91 9d3e
00000030: 44d9 dd3e a5f6 cd3e 730f 313f afe1 c33e
00000040: c7e5 b23f 2357 a63e e32a 2fbe 0a57 0ebe
00000050: 3dbd db3e 8697 493d 2ebf ac3f 49da 3bbd
00000060: 6037 dcbe 6b9b afbf 5b9c c9bd a225 413f
00000070: 1035 d93e 79d8 4d3f ff67 a93f dfb1 3cbd
00000080: 09a7 59bf 2d8a 3abf 18ba 9a3e a2b9 80be
00000090: ef00 d03e a773 6dbf dd7f 6f3e ffca a13f
000000a0: 25c9 66bf da99 103f 9bb6 023f 4e5a 173f
000000b0: 2a0b c53e 2c1b 5fbf aec4 b1be 10da b1bc
000000c0: 073d 073f 7f20 423f b680 e2be 7161 c9be
000000d0: 8fb0 d33d 79de 14bf d807 243f 785b 9abf
000000e0: e029 8ebe 5d4d 973f bead 883e 391e 603e
000000f0: 42c4 8a3e bf79 3c3f 619c 533f b25a 98bf
00000100: da17 6e3c 800d 503d 5f6f 60bf c68b 43be
00000110: 246f 54be db8e 7bbf 6e1e 33be 4927 29be
00000120: a54f e83e 8fc5 213e bb47 553e 0fca be3e
00000130: 5764 73bf 824a 3f3f 1f14 a2bf c741 3d3f
00000140: 5a1c 3cbf 1649 7c3f 42f1 663e fa46 09bf
00000150: 3552 cf3e 9c6d 003f d09f 6f3e 7f0c dcbe
00000160: b05c e9be 9934 c8bd 0739 74bd 5b78 c63e
00000170: 18cf 1dbe f53a c2be 2132 e2bf dc0e 4e3f
00000180: b519 c13f 1a2e 523e c602 4cbe a847 22be
00000190: 71e8 853d 3a85 e63e 5d08 0cbf 0398 99be
000001a0: 0e64 4c3e c205 0b3f c478 93be 9435 043f
000001b0: ded3 4b3f d175 cdbf 909f c13e a84f 623d
000001c0: cf4b d63e 1cf9 9bbf 759b 1d3e 741c fa3e
000001d0: 238a eebe 61e7 a3bd 1133 d63e 878b 26bf
000001e0: 2bf9 44bf 07dd fe3e ddca 1ebe 8457 96bf
000001f0: 5a63 9c3f c005 203e bcc0 2c3f 4a45 fa3d
00000200: c62c 70be b75d 07be 8335 343f 6363 f93e
00000210: ca92 6b3f 1d0f 0cbe bc1f 5d3e 85ad fdbe
00000220: 6d75 e4be d39f 12be 5b30 91bf 64d4 8bbe
00000230: 727f 7d3f 5a43 60bf 5fb3 783f da34 2e3d
00000240: 065a 31be ed5e c13d 23d3 643f 9a15 fd3e
00000250: 7ebd 3ebf ad14 d8be 65c2 5dbe 084f 97be
00000260: 3ee5 eabd 1390 9bbe 74cd 2cbe 887b d0bc
00000270: bd67 8bbe b755 91be 6b2e 8cbd 2634 033e
00000280: 8ca2 dabe e270 f33e baa0 a23e 3708 273e
00000290: 5245 7a3f 30ec 03c0 1f62 123f 9afd 6abf
000002a0: 98e0 10bf 88b4 e33e 354b 3c3e 7ea7 44bf
000002b0: 6625 b83d cbb3 80bf a256 773f d286 ea3e
000002c0: 1bf6 263e be59 123f c418 d3bd 52b2 163e
000002d0: 145d 43bf 6b51 0e3f cb03 fc3e 0cf8 2ebf
000002e0: 5a5c b43e 13a6 79be 2fdc 2e3f bab1 d43e
000002f0: 3073 173f deb4 9a3f 4857 07bf a6b0 863f
00000300: c097 b1be 9fac 7b3e 7165 42bf aa20 4c3f
00000310: 1636 9a3f 37f4 973d d8b9 b1bf a528 033f
00000320: 8dfa 143f 727e 6c3e 37d0 40be 4b34 2ebf
00000330: c1d1 903e d2e3 963e c0ee 3f3f b43c fb3e
00000340: 0b97 3dbf 753a 5f3d 2fd4 0e3f 3413 c33c
00000350: 9352 8d3f 0a59 593f 319e 26bf 235d fdbc
00000360: 1852 c1bd e731 edbd 607b 30be dea7 44bf
00000370: f2f2 133c 1410 0c3e 157a 0e3f f351 3fbe
00000380: b608 633f 1412 03bf 0e18 9a3f e8dc 323e
00000390: d8e3 39be e7a0 0c3f bca4 013f aa6b 22be
000003a0: 751a 99be 544b 3f3f be56 ea3e d3fc ffbe
000003b0: 9f62 633e 094f d9bd 07d7 5bbe ae3c a93f
000003c0: 93cf db3e 1b95 093e c2fa 6a3f 7c0e fbbe
000003d0: e42b 013e faa9 813e 0bc6 2b3f 81df e43d
000003e0: 6f23 54bf 7f8f b7bd 1d15 283f 3767 bd3e
000003f0: e671 0d3f 3110 69bf 8f50 1b3e 94ba b33e

sequential/dense_2/MatMul f4 [10, 50]
0.48678586 -0.34992662 -1.8706176 -0.5312834 -0.38992557 -0.03139491 -0.34328568 -0.8541708
-0.6960329 -0.033975486 0.9660291 -0.26665968 0.26915163 -0.8097222 -1.5488777 0.1871629
-0.6987977 -0.36629722 -0.5571168 -0.68141687 -1.5519687 0.37664062 -1.2445854 0.07694126
-1.7209252 -0.6768669 0.44331944 0.14832902 0.042611428 0.77581567 0.667831 -0.120104864
0.4523707 0.5195128 -0.19995433 0.20255189 -0.048908036 0.12842448 -0.9565589 -2.0364678
0.30244684 0.19970492 0.14595455 -3.2206457 0.26384968 -0.67393464 -0.7514465 -0.38673216
0.42594802 0.6176345 1.3137043 0.0016136612 -2.2951381 0.13198021 0.96155566 0.38811404
-0.19491485 -1.5587571 0.74619764 0.7598552 -1.0327001 -0.5574597 0.3792225 -1.6583495
-0.46297842 -0.28973764 1.4299934 -0.44771 0.14789493 1.1139377 0.31913507 -0.89070505
0.61663073 0.4890892 -0.19137289 -0.72530913 -0.17744046 0.11741379 -0.9141838 -0.12632449
-1.0883216 -0.52929497 0.23142433 -1.3407139 0.5689589 -0.80933857 -0.16706073 -0.73835933
0.11772091 0.6906673 0.4122367 0.30480072 0.44386947 0.012981083 0.08092897 -0.2030373
-0.948927 -0.4918025 -1.065295 -1.0386225 -0.9321563 -0.4769581 0.8047706 0.9256783
0.54026437 -0.7529655 -0.055479355 -1.0145787 0.06689806 -1.0364196 0.06815321 0.25249654
-0.6589532 -0.011685878 0.98843753 -0.044099808 -0.02064147 -0.16750203 0.32104504 -0.2536816
-0.601802 -0.9105022 -0.3121531 0.11520507 -0.77983606 -0.8101064 1.1659392 0.54083735
0.4969058 0.36387756 -0.35162824 0.17471942 -0.9838429 0.21731824 0.58463645 -0.09434595
0.36891901 1.1332849 0.7336876 -0.40144747 -0.9151643 0.23278174 -0.23698945 1.0904374
-0.18764772 0.87063116 -0.35675877 0.2520726 -0.10026904 -0.6132413 -0.85475546 0.60275406
2.4297895 -0.14125116 -0.6291804 0.54922974 -1.446196 1.3343797 -0.18728553 0.43917465
0.5598643 -0.068854325 0.49041694 -0.60854936 -1.2465644 0.021673858 -1.8158689 0.41337162
0.012895454 0.6961481 0.7207936 -1.5354621 0.5500181 0.04885021 -0.14078082 -0.76642513
-0.17514904 0.116317876 -0.19961253 -0.87527865 -0.5584386 -0.21031374 0.4454927 0.46162692
-0.29309258 0.25131676 -0.3816609 0.025243748 0.83287656 0.5230433 -0.6360003 -0.16023315
-0.6654266 -0.33480802 -0.30035987 0.55941844 0.4869814 -0.49006262 0.07195096 -0.94304484
-1.0122333 -0.6102014 -0.84278876 -0.67302555 -1.2945111 -1.4693775 0.5308012 -2.3571584
-0.08468203 -0.45231187 -0.67481774 0.19970188 0.10491144 0.5602884 0.86761606 -0.0049649477
0.5087789 0.36778918 -1.7429163 0.09215635 0.22738972 0.4804377 -0.33572206 -0.37525958
0.49132767 0.7467033 0.64161414 -1.4777312 0.21289621 -0.84669447 0.48838955 -0.25019154
-2.4205446 -0.21834601 -1.0384375 -0.6288257 0.36557165 0.6028112 0.42062438 -1.0267801
1.5904586 0.14406139 -0.4719335 0.7664955 -0.0077107437 -1.3852335 0.81700164 0.70230466
0.555414 0.35303077 -0.0878088 0.53277403 -0.16279066 -0.28834242 -0.8476994 -0.2601055
00000000: ff3b f93e 9529 b3be 6670 efbf 3002 08bf
00000010: 53a4 c7be f397 00bd 24c3 afbe f0aa 5abf
00000020: 362f 32bf e129 0bbd af4d 773f 9e87 88be
00000030: 3ece 893e f449 4fbf a041 c6bf a2a7 3f3e
00000040: 68e4 32bf 4f8b bbbe 359f 0ebf 5671 2ebf
00000050: e9a6 c6bf 0ad7 c03e 934e 9fbf 6193 9d3d
00000060: 4747 dcbf 2647 2dbf c4fa e23e 90e3 173e
00000070: 5289 2e3d db9b 463f f9f6 2a3f 8af9 f5bd
00000080: 229d e73e cafe 043f d4c0 4cbe c369 4f3e
00000090: cb53 48bd b581 033e 0be1 74bf 7d55 02c0
000000a0: 50da 9a3e 727f 4c3e 1c75 153e 0f1f 4ec0
000000b0: 4e17 873e fb86 2cbf cc5e 40bf c201 c6be
000000c0: dc15 da3e 4b1d 1e3f 7627 a83f 7c81 d33a
000000d0: 8be3 12c0 d225 073e 8328 763f e2b6 c63e
000000e0: c297 47be 5a85 c7bf cf06 3f3f df85 423f
000000f0: 842f 84bf aeb5 0ebf 7429 c23e cc44 d4bf
00000100: 820b edbe 7e58 94be 060a b73f 3f3a e5be
00000110: c571 173e 8395 8e3f ac65 a33e 3f05 64bf
00000120: 83db 1d3f e669 fa3e 41f7 43be dcad 39bf
00000130: f4b2 35be a476 f03d f307 6abf 355b 01be
00000140: 1f4e 8bbf e07f 07bf 80fa 6c3e 839c abbf
00000150: 4aa7 113f d030 4fbf f811 2bbe 1e05 3dbf
00000160: a917 f13d 92cf 303f b010 d33e d70e 9c3e
00000170: dc42 e33e 9cae 543c 16be a53d 03e9 4fbe
00000180: e1ec 72bf 8acd fbbe 965b 88bf 95f1 84bf
00000190: cca1 6ebf da33 f4be 7205 4e3f 41f9 6c3f
000001a0: c44e 0a3f 59c2 40bf 523e 63bd b7dd 81bf
000001b0: da01 893d 66a9 84bf e993 8b3d 3a47 813e
000001c0: 28b1 28bf 2076 3fbc 3e0a 7d3f 00a2 34bd
000001d0: 4d18 a9bc a785 2bbe 0460 a43e 8ee2 81be
000001e0: b20f 1abf ac16 69bf 88d2 9fbe a3f0 eb3d
000001f0: 56a3 47bf 2263 4fbf 7f3d 953f 5174 0a3f
00000200: 706a fe3e 294e ba3e 9e08 b4be a6e9 323e
00000210: 21dd 7bbf ac88 5e3e bcaa 153f 7338 c1bd
00000220: f4e2 bc3e 7b0f 913f f3d2 3b3f 868a cdbe
00000230: 3548 6abf 565e 6e3e 5dad 72be 7493 8b3f
00000240: b926 40be afe1 5e3f 16a9 b6be a90f 813e
00000250: db59 cdbd 62fd 1cbf 41d1 5abf 174e 1a3f
00000260: ac81 1b40 25a4 10be f711 21bf 529a 0c3f
00000270: f31c b9bf f4cc aa3f c7c7 3fbe 80db e03e
00000280: 4453 0f3f 7f03 8dbd ee17 fb3e e4c9 1bbf
00000290: 6c8f 9fbf 608d b13c 646e e8bf 72a5 d33e
000002a0: 7447 533c c336 323f ee85 383f 068a c4bf
000002b0: fccd 0c3f 2817 483d d928 10be 7034 44bf
000002c0: 455a 33be 1138 ee3d 3a67 4cbe 4312 60bf
000002d0: d5f5 0ebf 7c5c 57be 9f17 e43e 5d5a ec3e
000002e0: 3b10 96be 97ac 803e 0f69 c3be facb ce3c
000002f0: 6637 553f 2ae6 053f ead0 22bf 2914 24be
00000300: 6659 2abf f56b abbe c5c8 99be 0c36 0f3f
00000310: a055 f93e 7de9 fabe 065b 933d 636b 71bf
00000320: dc90 81bf 2936 1cbf 01c1 57bf 674b 2cbf
00000330: 8ab2 a5bf 9014 bcbf 96e2 073f afdb 16c0
00000340: c66d adbd 6c95 e7be dbc0 2cbf a67e 4c3e
00000350: cfdb d63d 106f 0f3f 161c 5e3f 00b1 a2bb
00000360: 563f 023f dd4e bc3e e217 dfbf 78bc bc3d
00000370: dad8 683e eefb f53e c3e3 abbe 0622 c0be
00000380: 4d8f fb3e f327 3f3f d340 243f 4c26 bdbf
00000390: 7701 5a3e f8c0 58bf 320e fa3e 1b19 80be
000003a0: 34ea 1ac0 1996 5fbe 85eb 84bf b9fa 20bf
000003b0: 352c bb3e d651 1a3f 145c d73e 886d 83bf
000003c0: 2694 cb3f d484 133e 45a1 f1be 0d39 443f
000003d0: 68aa fcbb 554f b1bf 0527 513f 3dca 333f
000003e0: 9d2f 0e3f 73c0 b43e 1ad5 b3bd e163 083f
000003f0: 98b2 26be 9ea1 93be d402 59bf 8c2c 85be
